2022-08-19 15:37:34,338 spice INFO: Use GPU: 0 for training
2022-08-19 15:37:41,064 spice INFO: Sim2Sem(
  (feature_module): ResNet(
    (conv1): Conv2d(3, 64, kernel_size=(3, 3), stride=(1, 1), padding=(1, 1), bias=False)
    (bn1): BatchNorm2d(64, eps=1e-05, momentum=0.1, affine=True, track_running_stats=True)
    (layer1): Sequential(
      (0): BasicBlock(
        (conv1): Conv2d(64, 64, kernel_size=(3, 3), stride=(1, 1), padding=(1, 1), bias=False)
        (bn1): BatchNorm2d(64, eps=1e-05, momentum=0.1, affine=True, track_running_stats=True)
        (conv2): Conv2d(64, 64, kernel_size=(3, 3), stride=(1, 1), padding=(1, 1), bias=False)
        (bn2): BatchNorm2d(64, eps=1e-05, momentum=0.1, affine=True, track_running_stats=True)
        (shortcut): Sequential()
      )
      (1): BasicBlock(
        (conv1): Conv2d(64, 64, kernel_size=(3, 3), stride=(1, 1), padding=(1, 1), bias=False)
        (bn1): BatchNorm2d(64, eps=1e-05, momentum=0.1, affine=True, track_running_stats=True)
        (conv2): Conv2d(64, 64, kernel_size=(3, 3), stride=(1, 1), padding=(1, 1), bias=False)
        (bn2): BatchNorm2d(64, eps=1e-05, momentum=0.1, affine=True, track_running_stats=True)
        (shortcut): Sequential()
      )
    )
    (layer2): Sequential(
      (0): BasicBlock(
        (conv1): Conv2d(64, 128, kernel_size=(3, 3), stride=(2, 2), padding=(1, 1), bias=False)
        (bn1): BatchNorm2d(128, eps=1e-05, momentum=0.1, affine=True, track_running_stats=True)
        (conv2): Conv2d(128, 128, kernel_size=(3, 3), stride=(1, 1), padding=(1, 1), bias=False)
        (bn2): BatchNorm2d(128, eps=1e-05, momentum=0.1, affine=True, track_running_stats=True)
        (shortcut): Sequential(
          (0): Conv2d(64, 128, kernel_size=(1, 1), stride=(2, 2), bias=False)
          (1): BatchNorm2d(128, eps=1e-05, momentum=0.1, affine=True, track_running_stats=True)
        )
      )
      (1): BasicBlock(
        (conv1): Conv2d(128, 128, kernel_size=(3, 3), stride=(1, 1), padding=(1, 1), bias=False)
        (bn1): BatchNorm2d(128, eps=1e-05, momentum=0.1, affine=True, track_running_stats=True)
        (conv2): Conv2d(128, 128, kernel_size=(3, 3), stride=(1, 1), padding=(1, 1), bias=False)
        (bn2): BatchNorm2d(128, eps=1e-05, momentum=0.1, affine=True, track_running_stats=True)
        (shortcut): Sequential()
      )
    )
    (layer3): Sequential(
      (0): BasicBlock(
        (conv1): Conv2d(128, 256, kernel_size=(3, 3), stride=(2, 2), padding=(1, 1), bias=False)
        (bn1): BatchNorm2d(256, eps=1e-05, momentum=0.1, affine=True, track_running_stats=True)
        (conv2): Conv2d(256, 256, kernel_size=(3, 3), stride=(1, 1), padding=(1, 1), bias=False)
        (bn2): BatchNorm2d(256, eps=1e-05, momentum=0.1, affine=True, track_running_stats=True)
        (shortcut): Sequential(
          (0): Conv2d(128, 256, kernel_size=(1, 1), stride=(2, 2), bias=False)
          (1): BatchNorm2d(256, eps=1e-05, momentum=0.1, affine=True, track_running_stats=True)
        )
      )
      (1): BasicBlock(
        (conv1): Conv2d(256, 256, kernel_size=(3, 3), stride=(1, 1), padding=(1, 1), bias=False)
        (bn1): BatchNorm2d(256, eps=1e-05, momentum=0.1, affine=True, track_running_stats=True)
        (conv2): Conv2d(256, 256, kernel_size=(3, 3), stride=(1, 1), padding=(1, 1), bias=False)
        (bn2): BatchNorm2d(256, eps=1e-05, momentum=0.1, affine=True, track_running_stats=True)
        (shortcut): Sequential()
      )
    )
    (layer4): Sequential(
      (0): BasicBlock(
        (conv1): Conv2d(256, 512, kernel_size=(3, 3), stride=(2, 2), padding=(1, 1), bias=False)
        (bn1): BatchNorm2d(512, eps=1e-05, momentum=0.1, affine=True, track_running_stats=True)
        (conv2): Conv2d(512, 512, kernel_size=(3, 3), stride=(1, 1), padding=(1, 1), bias=False)
        (bn2): BatchNorm2d(512, eps=1e-05, momentum=0.1, affine=True, track_running_stats=True)
        (shortcut): Sequential(
          (0): Conv2d(256, 512, kernel_size=(1, 1), stride=(2, 2), bias=False)
          (1): BatchNorm2d(512, eps=1e-05, momentum=0.1, affine=True, track_running_stats=True)
        )
      )
      (1): BasicBlock(
        (conv1): Conv2d(512, 512, kernel_size=(3, 3), stride=(1, 1), padding=(1, 1), bias=False)
        (bn1): BatchNorm2d(512, eps=1e-05, momentum=0.1, affine=True, track_running_stats=True)
        (conv2): Conv2d(512, 512, kernel_size=(3, 3), stride=(1, 1), padding=(1, 1), bias=False)
        (bn2): BatchNorm2d(512, eps=1e-05, momentum=0.1, affine=True, track_running_stats=True)
        (shortcut): Sequential()
      )
    )
  )
  (head): SemHeadMulti(
    (head_0): SemHead(
      (classifier): MLP(
        (lin1): Linear(in_features=512, out_features=512, bias=True)
        (lin2): Linear(in_features=512, out_features=10, bias=True)
      )
      (loss_fn_cls): CrossEntropyLoss()
      (ave_pooling): AdaptiveAvgPool2d(output_size=1)
    )
    (head_1): SemHead(
      (classifier): MLP(
        (lin1): Linear(in_features=512, out_features=512, bias=True)
        (lin2): Linear(in_features=512, out_features=10, bias=True)
      )
      (loss_fn_cls): CrossEntropyLoss()
      (ave_pooling): AdaptiveAvgPool2d(output_size=1)
    )
    (head_2): SemHead(
      (classifier): MLP(
        (lin1): Linear(in_features=512, out_features=512, bias=True)
        (lin2): Linear(in_features=512, out_features=10, bias=True)
      )
      (loss_fn_cls): CrossEntropyLoss()
      (ave_pooling): AdaptiveAvgPool2d(output_size=1)
    )
    (head_3): SemHead(
      (classifier): MLP(
        (lin1): Linear(in_features=512, out_features=512, bias=True)
        (lin2): Linear(in_features=512, out_features=10, bias=True)
      )
      (loss_fn_cls): CrossEntropyLoss()
      (ave_pooling): AdaptiveAvgPool2d(output_size=1)
    )
    (head_4): SemHead(
      (classifier): MLP(
        (lin1): Linear(in_features=512, out_features=512, bias=True)
        (lin2): Linear(in_features=512, out_features=10, bias=True)
      )
      (loss_fn_cls): CrossEntropyLoss()
      (ave_pooling): AdaptiveAvgPool2d(output_size=1)
    )
    (head_5): SemHead(
      (classifier): MLP(
        (lin1): Linear(in_features=512, out_features=512, bias=True)
        (lin2): Linear(in_features=512, out_features=10, bias=True)
      )
      (loss_fn_cls): CrossEntropyLoss()
      (ave_pooling): AdaptiveAvgPool2d(output_size=1)
    )
    (head_6): SemHead(
      (classifier): MLP(
        (lin1): Linear(in_features=512, out_features=512, bias=True)
        (lin2): Linear(in_features=512, out_features=10, bias=True)
      )
      (loss_fn_cls): CrossEntropyLoss()
      (ave_pooling): AdaptiveAvgPool2d(output_size=1)
    )
    (head_7): SemHead(
      (classifier): MLP(
        (lin1): Linear(in_features=512, out_features=512, bias=True)
        (lin2): Linear(in_features=512, out_features=10, bias=True)
      )
      (loss_fn_cls): CrossEntropyLoss()
      (ave_pooling): AdaptiveAvgPool2d(output_size=1)
    )
    (head_8): SemHead(
      (classifier): MLP(
        (lin1): Linear(in_features=512, out_features=512, bias=True)
        (lin2): Linear(in_features=512, out_features=10, bias=True)
      )
      (loss_fn_cls): CrossEntropyLoss()
      (ave_pooling): AdaptiveAvgPool2d(output_size=1)
    )
    (head_9): SemHead(
      (classifier): MLP(
        (lin1): Linear(in_features=512, out_features=512, bias=True)
        (lin2): Linear(in_features=512, out_features=10, bias=True)
      )
      (loss_fn_cls): CrossEntropyLoss()
      (ave_pooling): AdaptiveAvgPool2d(output_size=1)
    )
  )
)
2022-08-19 15:37:41,366 spice INFO: => no checkpoint found at './results/cifar10/spice_self/checkpoint_last.pth.tar'
2022-08-19 15:38:46,189 spice.trainer INFO: None
2022-08-19 15:39:47,684 spice.trainer INFO: None
2022-08-19 15:40:49,991 spice.trainer INFO: None
…
